…
          "base_uri": "https://localhost:8080/"
        },
        "id": "eee3h6A0IGc3",
        "outputId": "d508e58b-4735-4d67-c157-9240f7219bae"
      },
      "execution_count": null,
      "outputs": [
        {
          "output_type": "stream",
          "name": "stdout",
          "text": [
            "Model: \"sequential_2\"\n",
            "_________________________________________________________________\n",
            " Layer (type)                Output Shape              Param #   \n",
            "=================================================================\n",
            " conv2d_11 (Conv2D)          (None, 148, 148, 32)      896       \n",
            "                                                                 \n",
            " max_pooling2d_11 (MaxPooli  (None, 74, 74, 32)        0         \n",
            " ng2D)                                                           \n",
            "                                                                 \n",
            " conv2d_12 (Conv2D)          (None, 72, 72, 64)        18496     \n",
            "                                                                 \n",
            " max_pooling2d_12 (MaxPooli  (None, 36, 36, 64)        0         \n",
            " ng2D)                                                           \n",
            "                                                                 \n",
            " conv2d_13 (Conv2D)          (None, 34, 34, 128)       73856     \n",
            "                                                                 \n",
            " max_pooling2d_13 (MaxPooli  (None, 17, 17, 128)       0         \n",
            " ng2D)                                                           \n",
            "                                                                 \n",
            " conv2d_14 (Conv2D)          (None, 15, 15, 512)       590336    \n",
            "                                                                 \n",
            " max_pooling2d_14 (MaxPooli  (None, 7, 7, 512)         0         \n",
            " ng2D)                                                           \n",
            "                                                                 \n",
            " flatten_2 (Flatten)         (None, 25088)             0         \n",
            "                                                                 \n",
            " dense_4 (Dense)             (None, 512)               12845568  \n",
            "                                                                 \n",
            " dense_5 (Dense)             (None, 1)                 513       \n",
            "                                                                 \n",
            "=================================================================\n",
            "Total params: 13529665 (51.61 MB)\n",
            "Trainable params: 13529665 (51.61 MB)\n",
            "Non-trainable params: 0 (0.00 Byte)\n",
            "_________________________________________________________________\n"
…
